Model: "sequential_1"
_________________________________________________________________
Layer (type)                 Output Shape              Param #   
=================================================================
conv2d_1 (Conv2D)            (None, 254, 254, 32)      896       
_________________________________________________________________
max_pooling2d_1 (MaxPooling2 (None, 127, 127, 32)      0         
_________________________________________________________________
conv2d_2 (Conv2D)            (None, 125, 125, 32)      9248      
_________________________________________________________________
max_pooling2d_2 (MaxPooling2 (None, 62, 62, 32)        0         
_________________________________________________________________
conv2d_3 (Conv2D)            (None, 60, 60, 32)        9248      
_________________________________________________________________
max_pooling2d_3 (MaxPooling2 (None, 30, 30, 32)        0         
_________________________________________________________________
conv2d_4 (Conv2D)            (None, 28, 28, 32)        9248      
_________________________________________________________________
max_pooling2d_4 (MaxPooling2 (None, 14, 14, 32)        0         
_________________________________________________________________
flatten_1 (Flatten)          (None, 6272)              0         
_________________________________________________________________
dense_1 (Dense)              (None, 512)               3211776   
_________________________________________________________________
dense_2 (Dense)              (None, 1)                 513       
=================================================================
Total params: 3,240,929
Trainable params: 3,240,929
Non-trainable params: 0
_________________________________________________________________
Found 23 images belonging to 2 classes.
Found 23 images belonging to 2 classes.
Epoch 1/10

 1/20 [>.............................] - ETA: 24s - loss: 0.6904 - accuracy: 0.6087
 2/20 [==>...........................] - ETA: 19s - loss: 0.8179 - accuracy: 0.5652
…
