Model: "sequential_1"
_________________________________________________________________
Layer (type)                 Output Shape              Param #   
=================================================================
conv2d_1 (Conv2D)            (None, 62, 62, 32)        896       
_________________________________________________________________
max_pooling2d_1 (MaxPooling2 (None, 31, 31, 32)        0         
_________________________________________________________________
conv2d_2 (Conv2D)            (None, 29, 29, 32)        9248      
_________________________________________________________________
max_pooling2d_2 (MaxPooling2 (None, 14, 14, 32)        0         
_________________________________________________________________
conv2d_3 (Conv2D)            (None, 12, 12, 32)        9248      
_________________________________________________________________
max_pooling2d_3 (MaxPooling2 (None, 6, 6, 32)          0         
_________________________________________________________________
conv2d_4 (Conv2D)            (None, 4, 4, 32)          9248      
_________________________________________________________________
max_pooling2d_4 (MaxPooling2 (None, 2, 2, 32)          0         
_________________________________________________________________
flatten_1 (Flatten)          (None, 128)               0         
_________________________________________________________________
dense_1 (Dense)              (None, 128)               16512     
_________________________________________________________________
dense_2 (Dense)              (None, 1)                 129       
=================================================================
Total params: 45,281
Trainable params: 45,281
Non-trainable params: 0
_________________________________________________________________
Found 2905 images belonging to 3 classes.
Found 2905 images belonging to 3 classes.
Epoch 1/15

 1/20 [>.............................] - ETA: 14s - loss: 0.6779 - accuracy: 0.5938
 2/20 [==>...........................] - ETA: 9s - loss: 0.5386 - accuracy: 0.4844 
…
